…
61432: I tensorflow/core/platform/cpu_feature_guard.cc:141] Your CPU supports instructions that this TensorFlow binary was not compiled to use: SSE4.1 SSE4.2 AVX AVX2 FMA
2020-08-18 10:54:03.164536: I tensorflow/core/common_runtime/process_util.cc:69] Creating new thread pool with default inter op setting: 2. Tune using inter_op_parallelism_threads for best performance.
_________________________________________________________________
Layer (type)                 Output Shape              Param #   
=================================================================
conv2d (Conv2D)              (None, 100, 98, 98)       3700      
_________________________________________________________________
dropout (Dropout)            (None, 100, 98, 98)       0         
_________________________________________________________________
max_pooling2d (MaxPooling2D) (None, 100, 49, 49)       0         
_________________________________________________________________
conv2d_1 (Conv2D)            (None, 200, 48, 48)       80200     
_________________________________________________________________
dropout_1 (Dropout)          (None, 200, 48, 48)       0         
_________________________________________________________________
max_pooling2d_1 (MaxPooling2 (None, 200, 24, 24)       0         
_________________________________________________________________
conv2d_2 (Conv2D)            (None, 200, 22, 22)       360200    
_________________________________________________________________
dropout_2 (Dropout)          (None, 200, 22, 22)       0         
_________________________________________________________________
max_pooling2d_2 (MaxPooling2 (None, 200, 11, 11)       0         
_________________________________________________________________
conv2d_3 (Conv2D)            (None, 200, 10, 10)       160200    
_________________________________________________________________
dropout_3 (Dropout)          (None, 200, 10, 10)       0         
_________________________________________________________________
flatten (Flatten)            (None, 20000)             0         
_________________________________________________________________
dense (Dense)                (None, 200)               4000200   
_________________________________________________________________
dense_1 (Dense)              (None, 2)                 402       
=================================================================
Total params: 4,604,902
Trainable params: 4,604,902
Non-trainable params: 0
_________________________________________________________________
None
Train on 1 samples, validate on 1 samples
Epoch 1/20
1/1 [==============================] - 2s 2s/step - loss: 0.6972 - acc: 0.0000e+00 - val_loss: 0.6941 - val_acc: 0.0000e+00

Epoch 00001: saving model to ./checkpoint/cp.ckpt
…
