…
41] Your CPU supports instructions that this TensorFlow binary was not compiled to use: SSE4.1 SSE4.2 AVX AVX2 FMA
2020-08-07 10:31:16.010220: I tensorflow/core/common_runtime/process_util.cc:69] Creating new thread pool with default inter op setting: 2. Tune using inter_op_parallelism_threads for best performance.
Training data shape:  (2460, 4, 100, 100)
model defined
_________________________________________________________________
Layer (type)                 Output Shape              Param #   
=================================================================
conv2d (Conv2D)              (None, 100, 97, 97)       6500      
_________________________________________________________________
max_pooling2d (MaxPooling2D) (None, 100, 48, 48)       0         
_________________________________________________________________
conv2d_1 (Conv2D)            (None, 200, 45, 45)       320200    
_________________________________________________________________
max_pooling2d_1 (MaxPooling2 (None, 200, 22, 22)       0         
_________________________________________________________________
conv2d_2 (Conv2D)            (None, 200, 19, 19)       640200    
_________________________________________________________________
max_pooling2d_2 (MaxPooling2 (None, 200, 9, 9)         0         
_________________________________________________________________
conv2d_3 (Conv2D)            (None, 200, 6, 6)         640200    
_________________________________________________________________
flatten (Flatten)            (None, 7200)              0         
_________________________________________________________________
dense (Dense)                (None, 200)               1440200   
_________________________________________________________________
dense_1 (Dense)              (None, 2)                 402       
=================================================================
Total params: 3,047,702
Trainable params: 3,047,702
Non-trainable params: 0
_________________________________________________________________
None
callback created
Train on 2460 samples, validate on 284 samples
Epoch 1/10
  32/2460 [..............................] - ETA: 2:54 - loss: 0.6931 - acc: 0.5625
…
