…
pports instructions that this TensorFlow binary was not compiled to use: SSE4.1 SSE4.2 AVX AVX2 FMA
2020-08-17 17:42:38.172839: I tensorflow/core/common_runtime/process_util.cc:69] Creating new thread pool with default inter op setting: 2. Tune using inter_op_parallelism_threads for best performance.
Normalisation check: 0.0 1.0
Training data shape:  (7730, 4, 200, 200)
_________________________________________________________________
Layer (type)                 Output Shape              Param #   
=================================================================
conv2d (Conv2D)              (None, 100, 198, 198)     3700      
_________________________________________________________________
dropout (Dropout)            (None, 100, 198, 198)     0         
_________________________________________________________________
max_pooling2d (MaxPooling2D) (None, 100, 99, 99)       0         
_________________________________________________________________
conv2d_1 (Conv2D)            (None, 200, 98, 98)       80200     
_________________________________________________________________
dropout_1 (Dropout)          (None, 200, 98, 98)       0         
_________________________________________________________________
max_pooling2d_1 (MaxPooling2 (None, 200, 49, 49)       0         
_________________________________________________________________
conv2d_2 (Conv2D)            (None, 200, 47, 47)       360200    
_________________________________________________________________
dropout_2 (Dropout)          (None, 200, 47, 47)       0         
_________________________________________________________________
max_pooling2d_2 (MaxPooling2 (None, 200, 23, 23)       0         
_________________________________________________________________
conv2d_3 (Conv2D)            (None, 200, 22, 22)       160200    
_________________________________________________________________
dropout_3 (Dropout)          (None, 200, 22, 22)       0         
_________________________________________________________________
flatten (Flatten)            (None, 96800)             0         
_________________________________________________________________
dense (Dense)                (None, 200)               19360200  
_________________________________________________________________
dense_1 (Dense)              (None, 2)                 402       
=================================================================
Total params: 19,964,902
Trainable params: 19,964,902
Non-trainable params: 0
_________________________________________________________________
None
callback created
Train on 7730 samples, validate on 923 samples
Epoch 1/20
  32/7730 [..............................] - ETA: 20:28 - loss: 0.6919 - acc: 0.6562
…
