…
41] Your CPU supports instructions that this TensorFlow binary was not compiled to use: SSE4.1 SSE4.2 AVX AVX2 FMA
2020-08-04 09:47:32.483286: I tensorflow/core/common_runtime/process_util.cc:69] Creating new thread pool with default inter op setting: 2. Tune using inter_op_parallelism_threads for best performance.
Training data shape:  (7730, 4, 200, 200)
model defined
_________________________________________________________________
Layer (type)                 Output Shape              Param #   
=================================================================
conv2d (Conv2D)              (None, 200, 197, 197)     13000     
_________________________________________________________________
max_pooling2d (MaxPooling2D) (None, 200, 98, 98)       0         
_________________________________________________________________
conv2d_1 (Conv2D)            (None, 400, 95, 95)       1280400   
_________________________________________________________________
max_pooling2d_1 (MaxPooling2 (None, 400, 47, 47)       0         
_________________________________________________________________
conv2d_2 (Conv2D)            (None, 400, 44, 44)       2560400   
_________________________________________________________________
max_pooling2d_2 (MaxPooling2 (None, 400, 22, 22)       0         
_________________________________________________________________
conv2d_3 (Conv2D)            (None, 400, 19, 19)       2560400   
_________________________________________________________________
flatten (Flatten)            (None, 144400)            0         
_________________________________________________________________
dense (Dense)                (None, 400)               57760400  
_________________________________________________________________
dense_1 (Dense)              (None, 2)                 802       
=================================================================
Total params: 64,175,402
Trainable params: 64,175,402
Non-trainable params: 0
_________________________________________________________________
None
callback created
Train on 7730 samples, validate on 923 samples
Epoch 1/10
  32/7730 [..............................] - ETA: 44:54 - loss: 3.2504 - acc: 0.4062
…
